utils/best_model-2.pt (torch, 915657 bytes, 10 tensors)

conv1.weight f4 [32, 1, 5, 5]
000000 b3 58 89 bb 9d 0e c4 bd 92 d6 8f bd 78 90 13 be
       -0.004191482 -0.095731 -0.07023348 -0.14410579
000010 25 11 48 be cd 34 4a 3e 10 8a 09 be cd b2 76 bd
       -0.1953779 0.19746704 -0.13431573 -0.06022911
000020 3d 97 2f 3e 54 b2 24 be e7 ba 97 bd fd 0c b0 bd
       0.17147537 -0.16083652 -0.07408696 -0.08596227
000030 9c 42 f2 bd 37 bc 23 bd cf 89 e6 bc d4 26 0b 3e
       -0.11829111 -0.039974418 -0.028141884 0.1358903
000040 23 e6 8e 3c 93 0f d0 3d a2 d9 6e 3c bf 7b 2e 3b
       0.017443722 0.101592205 0.014578255 0.0026624051
000050 f2 df 42 3e ad 5f 2d bd ae 37 47 be 8e e6 45 be
       0.19030741 -0.04232757 -0.19454834 -0.19326231
000060 2e 5f 2e be 39 36 08 be 8b fb 6a 3d 8d af 35 3e
       -0.17028496 -0.13301934 0.057368796 0.17742749
000070 11 f7 82 bc 96 f4 31 3e 9d fd 91 be 18 f2 a2 3d
       -0.015986951 0.17378458 -0.28513804 0.07956332
000080 cc ec 83 3e 5f df 86 bd 61 ac e2 bc 35 2d 78 be
       0.257666 -0.065855734 -0.027670087 -0.24235995
000090 c2 c1 0c be 34 63 59 3e ca 3b a2 bc 4b 70 82 bd
       -0.13745788 0.21229249 -0.0198039 -0.063690744
0000a0 eb 43 91 bd b7 d4 c7 3d fb a5 73 3d 20 8b bb bd
       -0.070930324 0.09757369 0.059484463 -0.09157395
0000b0 51 9b 81 be 89 08 c3 3d 47 a9 cd bd 82 43 3c 3e
       -0.2531381 0.09523112 -0.10042053 0.18385127
0000c0 ca 57 0a 3e 41 d9 3d be 1f e2 27 be 1d 02 16 3e
       0.13510051 -0.18539907 -0.16394852 0.14649244
0000d0 d3 82 ac 3b 95 ea 6b be b3 f4 77 bd 3e a8 8e bd
       0.005264619 -0.23038705 -0.060536098 -0.069656834
0000e0 26 5b 7d be 64 f9 82 be 37 3b e1 bc 9b d1 71 bd
       -0.24741802 -0.25580895 -0.027494056 -0.059037786
0000f0 70 68 b1 3c 96 5d f8 bd a0 95 b8 bd 7f 75 ec 3d
       0.021656245 -0.12127225 -0.09012914 0.11545848
000100 d3 25 59 3d 5e 22 eb 3d 52 bb 75 3e 75 6e 7d 3d
       0.053014588 0.114811644 0.23997238 0.06187292
000110 31 14 3c 3d e6 5c 47 3e 72 b0 29 3e 12 60 3e 3e
       0.045917694 0.19469032 0.16571215 0.18591335
000120 ee 00 88 3c 94 75 ff bd 59 36 06 3e 9e 56 4a be
       0.016602006 -0.12473598 0.1310667 -0.19759604
000130 4d d2 84 be 1b f7 31 be 14 55 58 3c 21 da 01 be
       -0.25941697 -0.1737942 0.013203878 -0.12680866
000140 95 70 5b 3c b0 ea d6 bd c6 ea 2e be b8 e4 20 be
       0.013393541 -0.10493982 -0.17081746 -0.1571225
000150 78 6e c8 bd fe 04 72 be 84 ee 00 bd 28 09 c4 3d
       -0.09786695 -0.23634717 -0.031477466 0.09572059
000160 95 28 2a 3e b0 f6 31 3e c7 d9 6a be 75 7b 4a be
       0.16617043 0.1737926 -0.22934638 -0.19773658
000170 23 33 37 3e 3f 7b 18 bd 3f c7 5c bd f5 69 ba bd
       0.17890601 -0.03722691 -0.053900953 -0.09102241
000180 cd a7 d0 3d 47 52 0c be 18 25 a8 bd 0d f1 97 3d
       0.101882555 -0.13703261 -0.082102 0.07419024
000190 a6 f8 42 be 0a d2 a7 be c2 93 57 bd 93 b1 c4 3e
       -0.19040164 -0.32777435 -0.052631147 0.38416728
0001a0 a1 33 b4 3e fb d6 37 be 27 34 7b bd a9 e7 b8 3c
       0.3519564 -0.17953102 -0.061329033 0.022571402
0001b0 eb 6e 97 3e 55 d9 d9 3e 35 6d 8d be 85 f7 82 be
       0.2957681 0.42548624 -0.2762238 -0.25579467
0001c0 fe 85 a5 bd 6a 7a 3b 3e 4a ef 22 3e 32 7c 4e 3c
       -0.080821976 0.18308416 0.15911594 0.012602853
0001d0 3f 53 6c be f4 5a 51 be 74 8b 81 3c ec 36 b3 3e
       -0.23078631 -0.20444852 0.015813567 0.3500284
0001e0 45 c4 a1 be ed 26 f5 bd cf 71 86 bd 06 e2 6e 3d
       -0.31595054 -0.11970315 -0.06564676 0.05832102
0001f0 a6 12 93 3e 45 ae 2e 3d ce 78 ba 3e 7b 1f 94 3d
       0.28725165 0.042646665 0.36420292 0.07232567
000200 e3 cd d0 3e ad 6d 9e 3e 21 30 c2 3c d7 e9 5b 3e
       0.4078208 0.3094305 0.02370459 0.21475922
000210 1f 71 ba 3a 68 6a 9d 3d 28 14 53 3e fb 6e 9a 3c
       0.0014224387 0.07686311 0.20613158 0.018851748
000220 4e 9c 44 be 06 1f d0 3d 15 91 1d 3e 93 20 bf 3d
       -0.1920025 0.10162167 0.15387376 0.09332385
000230 8f 92 85 bd 9e f5 9b bd a3 fb 64 3e 4f 5e 96 3e
       -0.065220945 -0.07615207 0.22361617 0.29368827
000240 09 31 dc bd 31 ea 31 bd 04 9c 36 3e 88 42 e2 bd
       -0.1075154 -0.043436233 0.17832953 -0.11047846
000250 e5 3f 28 3e 12 b7 df 3d 50 a8 ac 3d 3e ea 8d 3d
       0.16430624 0.1092359 0.084305406 0.06929444
000260 dc 0d 53 3e ce 76 15 3e 7f 58 17 3e a1 d0 85 3e
       0.20610756 0.14596102 0.14779852 0.26135734
000270 f1 73 83 3e 9d 8f 23 3e 4c 85 1f be 41 1e a5 3d
       0.25674394 0.15972753 -0.15578192 0.08062411
000280 b3 03 54 3e 13 fd 03 be 2c 70 5b 3e 6b e0 2c be
       0.20704536 -0.12889509 0.21429509 -0.16882484
000290 07 75 ce bd 84 ed 23 3e 13 3f 6e 3e 70 2a 29 bd
       -0.10080915 0.16008574 0.23266248 -0.041300237
0002a0 3e 40 00 3e 37 18 0d be 3a 33 95 3d a7 ec fe 3c
       0.12524506 -0.13778768 0.07285161 0.031118704
0002b0 3f 07 33 3e 4e 5a 57 3e 84 99 5f bd 0b 68 4d 3d
       0.17483233 0.21030542 -0.054589763 0.05014805
0002c0 bf bb 36 be 71 06 f4 bd 1d 6b 22 be a3 9d e3 3d
       -0.17845057 -0.11915291 -0.15861173 0.11114051
0002d0 9f d3 27 be ad f1 28 3e 23 d0 17 be ef 78 14 3d
       -0.16389321 0.16498442 -0.14825492 0.036248144
0002e0 89 a5 46 be 41 54 1d 3e 6b 67 02 3e 68 fa 2e be
       -0.19399084 0.15364172 0.12734763 -0.1708771
0002f0 d2 10 4e 3d d0 7d 3d be a5 82 2f 3e fc ed 84 3d
       0.05030901 -0.18505025 0.1713968 0.064907044
000300 76 66 28 bc d3 89 4f 3c a6 84 d7 3d e9 43 c4 3b
       -0.010278335 0.012667137 0.105233476 0.005989541
000310 75 1c 95 bd 02 a5 15 be 16 ff 49 3e b1 5b 36 be
       -0.072808184 -0.14613727 0.19726214 -0.17808415
000320 33 f4 f0 3d e5 7b 71 3e 9f 19 91 be 2c 30 4a be
       0.11765327 0.23582418 -0.2833986 -0.19744939
000330 27 ab a3 bd 1a d5 90 3e 0b 94 97 bd b4 b1 29 be
       -0.07991629 0.28287584 -0.07401284 -0.16571695
000340 7a 8c c0 be 1c c3 b1 3d 22 fa 24 3e 78 e4 ec 3d
       -0.37607175 0.08679792 0.16111043 0.115670145
000350 47 c5 40 bd be ea 67 be 70 b7 e8 bd fa 07 a6 3e
       -0.04706314 -0.22648141 -0.11363113 0.3242796
000360 b8 c5 82 3e 90 92 12 3d 74 7e c2 be 48 dd 3b 3d
       0.25541472 0.035784304 -0.379871 0.045865327
000370 62 b4 56 3e 2d 72 ab 3e 05 7b cd 3d ca c6 96 be
       0.20967248 0.33485547 0.1003323 -0.2944854
000380 b3 73 ac bd 63 68 43 be b8 fe ee be 2d 09 d8 be
       -0.084205054 -0.19082789 -0.4667871 -0.421945
000390 30 aa f9 3c e4 8f 3f 3e 69 d8 d0 ba 48 4b 98 be
       0.03047666 0.18707234 -0.0015933636 -0.29744935
0003a0 8f a2 6f be 69 e0 ff bd 28 22 8a bd db 7d 91 3e
       -0.23401855 -0.12493975 -0.06744796 0.28416333
0003b0 c7 8f 91 3d 18 57 f0 3d f0 e6 85 3d 7d 2e b3 3d
       0.071075015 0.11735362 0.065381885 0.08749101
0003c0 56 05 6f bc c6 30 88 3e 20 02 13 3e bf ac 64 3e
       -0.0145886745 0.2659971 0.1435628 0.22331522
0003d0 4d a7 83 3e c5 fc 88 3e 4f f5 25 3e a2 c9 c7 3c
       0.25713578 0.26755348 0.16206859 0.024388138
0003e0 8c 60 65 3d 9c 9c f7 bd af 9d 3f 3d 7d a1 ba 3d
       0.056000277 -0.12090418 0.04678124 0.09112833
0003f0 ff e7 71 be d6 33 32 be fd 09 9a 3d 3b 9c a9 bd
       -0.23623656 -0.17402586 0.07521436 -0.08281752

conv1.bias f4 [32]
000000 a9 a1 88 3c 10 5e 80 3e dc 69 fb 3c 2f da 79 3e
       0.016678648 0.25071764 0.030690126 0.24399637
000010 af 20 85 3e d6 d7 74 3d ba 4f 07 bd 6f c8 40 be
       0.26001498 0.05977615 -0.033035018 -0.1882646
000020 11 c1 8a 3e 8b 61 97 bc 48 93 39 3e bf 43 b7 3e
       0.27100423 -0.01847913 0.1812259 0.35793874
000030 cb dd d0 3d d6 5e be 3e 70 8a c8 bb 32 0a 4d 3d
       0.10198554 0.3718173 -0.0061200187 0.05005855
000040 e7 5e 1f bc 09 5c f6 bd 30 f9 e0 3d 47 f2 e7 3d
       -0.009727216 -0.12029273 0.10985029 0.113255076
000050 83 cf 7e bb c8 74 d6 bc 7d dd c4 3e cc 3f 67 3e
       -0.003888101 -0.026178733 0.38450232 0.2258293
000060 3e 18 01 3e f2 af eb bc c4 92 57 bc 33 b7 64 bb
       0.12606904 -0.02877042 -0.01315755 -0.0034899234
000070 f2 d9 1d be 7e 85 c4 bd 4e 55 d1 bd 4a cf 20 3d
       -0.15415171 -0.09595774 -0.10221349 0.039260186

conv2.weight f4 [32, 32, 5, 5]
000000 d5 c1 65 b7 99 fb aa bb 33 47 0b 3c 8c 97 95 bc
       -1.3694594e-05 -0.005217981 0.008500862 -0.01826074
000010 7d f0 8b bb 5b a2 a7 3c 65 9d a6 bc 63 21 00 bd
       -0.004270612 0.02046316 -0.020338723 -0.03128184
000020 fc f0 6e 3b ae b6 e5 bc 1d a3 d0 bc 66 0d 93 bb
       0.0036459556 -0.02804121 -0.025468403 -0.004487681
000030 44 16 9d 3c 8e 7d 0e 3d cf af df 3c 2c 90 b7 ba
       0.019175656 0.034787707 0.027305512 -0.0014004759
000040 6b fc 33 bc 03 09 be 3a 6f 1a fd bb 3f 04 9d 3c
       -0.010985474 0.0014498535 -0.0077240984 0.019167064
000050 4f 0e be bc 1f 15 1d 3c 2a c5 06 3b 80 14 ba 3b
       -0.023200182 0.009587555 0.0020564296 0.0056787133
000060 5d 83 c0 3b 7e 2a 2b bc 14 2b a4 bc 0c 94 bb 3a
       0.0058750347 -0.010447143 -0.020040073 0.0014311089
000070 1a f3 15 3d bb 33 b2 3c c0 42 6f ba 55 e4 1c bd
       0.036608793 0.021753183 -0.0009127073 -0.038303692
000080 c7 1a 94 3b 4a a7 0a bd f9 4a 78 3c 1c 5c 39 3c
       0.0045197937 -0.033850946 0.015154594 0.0113134645
000090 42 56 4b bb 0e 95 cc 3b 3a 21 d0 3c c5 73 ed bc
       -0.0031026755 0.0062433546 0.025406469 -0.028985867
0000a0 05 3a 8c 3c 28 36 03 bd 8f 2c ea 3a d3 5a 1f 3d
       0.01711751 -0.03203407 0.0017866063 0.038904976
0000b0 58 86 2c bb b8 8c 12 3d 3a 1d 1f 3d 75 e9 f0 3c
       -0.0026325192 0.03577873 0.038846232 0.029408196
0000c0 87 3c 2f 3c 3d bd b4 bc f2 19 f8 3c 74 9d 63 3d
       0.010695583 -0.022062892 0.03028581 0.05557008
0000d0 2b ed d5 3c 0b 4f 84 3d f5 c6 3f 3d 3c 7e d6 3c
       0.026114067 0.06460389 0.0468206 0.02618324
0000e0 b1 1a ab 3b 4d cd 9c 3c 39 91 05 bc 7d 41 18 3d
       0.0052216877 0.019140864 -0.0081523 0.03717183
0000f0 7b 58 14 bd 67 c3 79 3c 71 57 9e 3c 43 73 83 bc
       -0.036217194 0.015244341 0.019328805 -0.016046172
000100 de 1e a7 bc 0d 9b 7f bc 3b c9 6e bc ef f2 82 bc
       -0.02040046 -0.015600932 -0.014574344 -0.01598498
000110 8a 18 bb 3c 84 30 09 3d 63 63 49 bb e3 af 8b ba
       0.02283885 0.033493534 -0.0030729405 -0.0010657277
000120 db 49 a1 bc 91 2f 9d bc 99 60 7b bc 7a e8 85 3c
       -0.019688537 -0.01918772 -0.015342855 0.016346205
000130 ed 95 9e 3c 67 11 8e 3c c7 4d 18 bc 00 2a b9 bc
       0.0193586 0.017342282 -0.009295887 -0.022603035
000140 2c 6d 70 3c d2 2a f0 3b a5 c9 0a 3d 17 ac 65 3b
       0.014674466 0.0073293233 0.03388371 0.00350452
000150 dc 9a 97 3c da 45 72 bb 69 0e 93 3b a8 33 08 3d
       0.01850646 -0.0036967904 0.004487802 0.03325239
000160 9f 43 9a bc 60 43 a9 37 76 f1 ad 3c 76 f6 f2 3a
       -0.018831072 2.0177744e-05 0.021233302 0.0018536586
000170 a9 01 0c bd 74 1f 11 bd 0d cc ad 3c 2b 57 44 bc
       -0.03418127 -0.035430387 0.021215463 -0.011983673
000180 90 e5 c5 bc 9c 49 72 bc e0 25 2b 3c 7a e6 d4 3c
       -0.024157315 -0.014788058 0.010446042 0.025988806
000190 f4 92 5a 3b a4 7d 3f bb 57 a6 13 3c 64 fe 5c 3d
       0.003335175 -0.0029219175 0.0090118265 0.053953543
0001a0 26 a9 2a bb c2 37 cc 3c 85 0a 8b bc 89 12 f7 bc
       -0.0026040762 0.024928931 -0.01697279 -0.030160205
0001b0 4d e8 ae bc 85 bb f3 3c 9f 2c 3d 3d 0b 68 b3 3c
       -0.021351004 0.029752502 0.046185132 0.021900197
0001c0 c2 29 65 bd 75 8b 81 bc cb 03 d4 3b 09 e7 57 3d
       -0.055948026 -0.015813569 0.0064701787 0.052710567
0001d0 f6 d0 10 bc 01 c7 e4 bc 79 1b 9b bc 13 57 0c bc
       -0.008838883 -0.027926924 -0.018933998 -0.008565682
0001e0 eb c2 f1 3c 7a b9 31 bc cc 15 05 bd 6f 9d 55 bd
       0.02951189 -0.010847444 -0.03249149 -0.052152093
0001f0 53 80 15 3c 5f 00 cf bd 18 8e ca bd cd 85 ad bd
       0.009124833 -0.10107493 -0.098903835 -0.08472786
000200 3e 70 9b bd 1c 25 9b bb c3 c2 e4 bc 93 0f 1c bd
       -0.07589768 -0.0047346484 -0.0279249 -0.03810079
000210 ec c6 81 bd 88 a5 84 bd 3d 6e f2 bc 84 8c 18 bb
       -0.063367695 -0.06476885 -0.029593581 -0.0023277113
000220 a7 82 38 3b ce b1 20 bb 5d c8 b1 bc 6e 42 a5 bc
       0.0028154047 -0.0024520042 -0.021701986 -0.020173278
000230 6d 51 18 3d 53 9a 65 3c 1e 86 e4 ba fd ed 4d 3c
       0.03718703 0.014013845 -0.001743499 0.012568948
000240 28 f8 8e 3c df ff 8c 3d 07 10 3d 3d 44 21 73 3d
       0.017452314 0.06884741 0.046157863 0.059357896
000250 fd b2 30 3c b5 62 01 3d 75 ac 86 bd 33 92 14 bd
       0.010784862 0.031588275 -0.06575862 -0.03627224
000260 3d 75 d4 bc 09 a7 99 bd 8f 3d 05 bd c6 d7 00 bd
       -0.02593481 -0.075025626 -0.03252941 -0.031455778
000270 1b 7d 9a bc dc eb 37 bd 59 13 43 bd 43 11 30 bd
       -0.018858483 -0.044902667 -0.047625873 -0.042985212
000280 ef 08 2c ba 3b df d0 3c 2b 62 81 bb 23 69 c0 bb
       -0.00065626105 0.02549707 -0.00394847 -0.0058719083
000290 fb d0 46 bc 87 ed 07 3d 30 8d 39 3d 73 92 12 3d
       -0.012134786 0.033185508 0.045300663 0.035784196
0002a0 3f 99 4a 3d e7 94 54 3d c2 e6 5a 3c ed a3 6f 3c
       0.049462553 0.051899817 0.013360681 0.014626485
0002b0 e8 31 ab 3c 05 58 88 3d fe 87 27 3d 3f 07 c3 bc
       0.02089782 0.066574134 0.040901177 -0.023807166
0002c0 ee 16 a7 3c 2e 6a 8a 3c 18 21 8b 3c eb 55 61 3c
       0.020396676 0.016896334 0.016983554 0.013753395
0002d0 02 fd b3 bb c8 a7 85 3c 7d bc b7 bc 8e 7f 90 bb
       -0.0054928074 0.016315356 -0.022428745 -0.004409737
0002e0 53 d7 75 3c 08 d4 62 3c dd 27 8f bc 67 86 f6 bc
       0.015004951 0.0138444975 -0.017475063 -0.030093385
0002f0 f5 45 8e 3c e1 7f 90 bc 49 4a 9e 3c 47 c3 08 bd
       0.017367342 -0.017639102 0.019322531 -0.033389356
000300 74 f8 f9 bc bc 99 05 3d 69 f0 03 3d 74 85 3e bc
       -0.03051398 0.032617316 0.032211695 -0.011628497
000310 6a e0 ab 3c 38 0c bf 3c 4a 63 1e bc 5f 94 e2 3c
       0.020981032 0.023321256 -0.009667227 0.02765864
000320 a9 71 36 3d 53 fe 59 3d 9e 0d 67 3c a2 12 c1 bc
       0.04454199 0.053221058 0.014102368 -0.023568455
000330 9a 14 82 bc b8 7c 5d bc 24 ad a6 bc 08 21 e5 3c
       -0.015878964 -0.013518505 -0.020346232 0.027969852
000340 97 a6 1b 3d 06 f9 04 3d 89 3b 70 bc 1d b9 06 bd
       0.03800067 0.03246405 -0.014662632 -0.03289138
000350 56 2c bd bc da b1 a8 3b 54 16 60 bc c3 fd 50 3c
       -0.02309243 0.0051481547 -0.013677198 0.012755814
000360 d1 2e 1a bd dd 21 d4 bc bc 30 ad bb fc 0d 1e bc
       -0.037642304 -0.025895054 -0.0052853506 -0.009646889
000370 b9 49 17 bd c4 7b 16 3c a1 c3 a2 bb a6 c7 91 3b
       -0.03693554 0.009184781 -0.0049671684 0.004448849
000380 85 e8 67 3d 41 8b 65 3d 8a ad f2 3d ff 5c f8 3d
       0.056618232 0.056041006 0.11849506 0.121271126
000390 5d 3e e3 3d ed ac b7 3c cf 7b 6d 3d 66 bf ed 3c
       0.11095879 0.022421325 0.0579794 0.02902193
0003a0 2d 61 94 3d 8f bb 16 3d 57 de a5 3d b7 2f 2b 3d
       0.07245097 0.036799964 0.080990486 0.04179355
0003b0 3e 91 71 bc e1 d7 b7 3c eb 33 d5 bb 56 d9 43 3c
       -0.014744101 0.022441806 -0.0065064332 0.011953672
0003c0 ff 73 0f 3d 9a 76 e6 3c dc 80 00 bd 28 df 41 3c
       0.035022732 0.028132726 -0.03137289 0.01183299
0003d0 61 77 ac bc 35 bf 05 bc 8f 2e 10 3d 81 aa 4b bc
       -0.021053018 -0.008163263 0.03520065 -0.012430788
0003e0 66 42 79 3c ad 51 b1 bc eb 5a e8 bc 28 d1 12 bd
       0.0152135845 -0.021645391 -0.028363666 -0.035844
0003f0 f6 5d 09 3c bc dc 0a bd 87 1a c6 3c 15 ea 86 3b
       0.008384218 -0.033901915 0.024182571 0.00411726

conv2.bias f4 [32]
000000 d0 3f a9 bc 63 1e 89 3c 63 f3 8e bb bf 4e 29 bc
       -0.020660311 0.016738122 -0.00436251 -0.010333716
000010 9d df 3f 3d cd 32 fe bd 72 1c 06 ba f4 00 f2 3c
       0.046844114 -0.12412033 -0.0005115933 0.02954147
000020 23 ac a7 3c 38 f1 65 3d 49 4d 24 3e af 5a d4 bc
       0.020467823 0.056138247 0.16045107 -0.025922148
000030 12 d9 ae 3c 67 88 b3 3d 23 84 a9 bd 0f 57 08 bc
       0.021343742 0.08766251 -0.08277156 -0.008321538
000040 ac c0 a9 3d b6 8d 0d 3e 35 95 cf bb 99 81 6e bd
       0.08288702 0.1382359 -0.0063349255 -0.058229063
000050 03 8f 49 bc 1c ed 38 3d a1 58 95 3d aa 23 b1 3d
       -0.012302163 0.045148 0.07292295 0.086493805
000060 03 ec e9 3c 9c 14 4e 3d fe 64 73 3d 9e b3 2d bc
       0.028554922 0.050312623 0.059422486 -0.010601906
000070 26 f9 dc 3c 84 ee b5 bd 13 d0 82 3d 2f 39 b6 3c
       0.026974272 -0.08883384 0.06387343 0.022244064

conv3.weight f4 [64, 32, 5, 5]
000000 22 a5 12 3d d1 77 3f bc d9 ce 6a 3d ab c6 a0 3c
       0.035802014 -0.011686281 0.05732617 0.019625982
000010 6b d2 11 3b af fb 40 3c c4 2e 2b bc 03 fa 19 3b
       0.0022250663 0.011778756 -0.0104481615 0.0023494966
000020 f8 cb 84 3a 44 0e 0d 3b cf 52 17 bd 3a 9b 21 bc
       0.0010131588 0.0021523396 -0.036944207 -0.009863669
000030 d4 ae 29 bc aa bd 87 3b e4 5f 03 bc 42 5c 0d bd
       -0.010356624 0.0041424828 -0.008018468 -0.034511812
000040 17 32 f5 bc 9f e2 36 3c 32 cd ea bb e7 5b fc 3c
       -0.029931111 0.011162429 -0.0071655745 0.030805541
000050 2a 8d 2d bd 2d d8 d4 3c 0b 83 f2 3c c0 91 d3 3c
       -0.042370953 0.025981987 0.029603502 0.025826335
000060 1b 96 86 3c 20 a9 43 bc 2e c5 6a bc e0 f0 a3 3d
       0.016428998 -0.011942178 -0.014329238 0.08004928
000070 f8 80 22 3d 9b 45 32 3c 9a af 4b bb d0 0a 08 bc
       0.039673775 0.010880853 -0.0031080008 -0.008303359
000080 ac 72 c9 3c d3 e1 e1 bc 2e b9 3c 3d 1e ed 61 3d
       0.024590813 -0.027573502 0.04607504 0.055157773
000090 42 20 8e bb cf 5a 20 3c eb e2 4f bd 97 58 02 bc
       -0.0043373415 0.009787275 -0.050753515 -0.007955692
0000a0 3a b5 89 3d e6 b9 2f bd 1f 8a 4e 3b 0c 80 2d bd
       0.06724019 -0.042901896 0.0031515432 -0.042358443
0000b0 0b 5a 2f 3c 4d ee 28 3d 00 91 47 3c d5 fa ce bc
       0.01070262 0.041242886 0.012180567 -0.02526609
0000c0 64 92 65 3c 6b 55 5b 3d ca 7d 69 bd 6a 38 1e bd
       0.014011953 0.053548258 -0.057004727 -0.03862802
0000d0 29 af 26 bd 89 7a 3c 3c 9b dc 1e bd 02 5c f8 bc
       -0.04069439 0.011503824 -0.038784605 -0.03031731
0000e0 01 d9 19 bc 3c 00 26 b9 10 4f 15 bd 88 be 43 bc
       -0.009390117 -0.00015831081 -0.036452353 -0.011947282
0000f0 22 1b 8d bc cb 3b 44 3b 86 f3 91 bc 09 be c2 bb
       -0.017224852 0.0029942866 -0.017816316 -0.005943064
000100 5d eb f3 bc e8 9b 22 bd ab 5b 28 3c 0f 24 fb 3c
       -0.029775316 -0.039699465 0.010275762 0.030656843
000110 7c d5 19 bd e2 ae 10 bd 67 d3 0a bc 1c 4d a8 bc
       -0.03755711 -0.03532303 -0.008473254 -0.020544581
000120 58 06 ff bc 87 f6 55 bc db 73 09 3c 98 94 49 bb
       -0.031130955 -0.013059265 0.0083894385 -0.0030758735
000130 e9 0d bd 3a 73 fa 9a bd 91 00 84 bc 50 e8 df bb
       0.0014423701 -0.07567301 -0.016113551 -0.0068331137
000140 2d d1 bf 3b 9b af d9 bc 73 3e 89 bc 89 66 45 3c
       0.005853793 -0.026572993 -0.01675341 0.012048372
000150 32 4c 9c 3c 3f 5d 94 bb c6 0c ca b9 2e be c7 bb
       0.019079302 -0.0045277174 -0.0003853796 -0.006095669
000160 9a 02 5f 3b 8a 95 64 bb 88 90 b7 bc 79 b2 d2 3c
       0.003402865 -0.0034879171 -0.022407785 0.025719868
000170 d2 fc b4 bc 12 8c 06 3a 67 cf cb 3b be 75 de bc
       -0.02209321 0.00051325664 0.0062197926 -0.027155753
000180 3d 9b 8f bc d3 fb 1a bc ab c6 b2 3c 3b 69 7c bd
       -0.017530078 -0.009459454 0.021823248 -0.061623793
000190 39 ed 24 bc 0f 6b 99 bc b2 d5 2a bd 3b 15 9e 3c
       -0.010066324 -0.018727807 -0.041707702 0.019297233
0001a0 9e cc 4e bc 00 80 52 bd f6 39 62 3b 72 6f bc 3c
       -0.012622027 -0.0513916 0.003451941 0.02300236
0001b0 28 8d 51 3d 4f 82 7e bc 25 6e 00 bd ea 16 bc 3c
       0.051160008 -0.015533998 -0.031355042 0.022960145
0001c0 0e 9d 03 bd e3 94 84 bc 38 ef 2b 3c 97 b2 f4 bc
       -0.0321322 -0.016184276 0.010494046 -0.029870315
0001d0 f7 00 95 3c e1 61 28 bd 9e 36 4a bd 7d a1 d1 bc
       0.018188937 -0.04110897 -0.049368493 -0.025589699
0001e0 cd 0f ae bc 3d 29 a4 3c 39 99 f7 bc 55 05 6e 3c
       -0.021247769 0.020039195 -0.03022443 0.014527638
0001f0 ae 10 87 ba 68 cc 85 bd 6f f5 a7 bd 8d a8 6a bd
       -0.0010304654 -0.06533128 -0.082011096 -0.05728965
000200 6f 63 0a bd 05 1a 3d bd 59 a9 85 bd b8 5a a1 bc
       -0.033786234 -0.046167392 -0.06526441 -0.019696578
000210 aa 6d fc bc 36 9e 5e 3b b3 60 b0 bc fa 1f 0b bd
       -0.03081401 0.0033968813 -0.021530485 -0.033966042
000220 fd 95 08 bd 5f 86 c2 3c 64 46 32 bd 5d db d5 39
       -0.033346165 0.023745714 -0.04352416 0.00040789964
000230 47 3f 90 bd 95 00 38 bd bf d3 39 bc b2 5c 89 3c
       -0.07043319 -0.04492243 -0.011341988 0.016767833
000240 ba 3b 0e 3c c1 8d 47 bd d2 ba f3 3b a4 86 8c 3c
       0.008681232 -0.04871917 0.007438042 0.017154045
000250 8a 16 d7 bc 44 44 d5 3c 52 2e 82 bd 66 d4 70 bc
       -0.026255865 0.026033528 -0.06356491 -0.014699077
000260 34 54 81 bc 76 29 32 3a ad 6c 98 3c 3d 15 8a ba
       -0.015787221 0.00067963393 0.018606508 -0.0010534894
000270 d1 81 b4 3c 0f 87 b1 ba 5d 8f 2a bd 51 c1 4e bc
       0.022034558 -0.0013544279 -0.041640628 -0.012619332
000280 a3 88 00 bd 74 94 10 bb d8 f2 f1 bb c1 17 8a 3b
       -0.031380307 -0.0022061141 -0.0073836856 0.0042142575
000290 30 df 04 bd 1f c8 92 bc d3 62 2e 3d 6c d9 80 3c
       -0.03243941 -0.01791769 0.042574715 0.015728675
0002a0 5a cf 15 bc 36 da 55 b9 82 4d 47 bd 72 0c 57 bc
       -0.009143675 -0.00020394553 -0.0486579 -0.013125526
0002b0 e3 9a f8 bc 58 12 f3 bc 83 44 22 3d 61 15 93 bb
       -0.030347293 -0.029671833 0.03961612 -0.0044886325
0002c0 0b e9 ab bb db 7e e7 bc d4 a6 88 3c d7 63 cb 3c
       -0.0052462867 -0.028258732 0.016681112 0.02482788
0002d0 81 2a 80 bc f0 41 0f bd a5 74 a4 3b 97 e4 15 3a
       -0.015645267 -0.034974992 0.005018788 0.00057179615
0002e0 7b 2e 1b 3c d4 42 02 bc bd 9e 06 bd f5 9c f6 bb
       0.009471531 -0.007950503 -0.03286623 -0.007526035
0002f0 f0 74 5a 3b 4e 33 0e bd 02 9b e8 bc 41 4d 13 3d
       0.003333386 -0.034716897 -0.028394226 0.035962347
000300 f8 15 07 bd 56 d8 9a 3c 5b 3f df bc 97 65 0e 3d
       -0.032979935 0.018901985 -0.02725189 0.034764852
000310 d8 f3 f9 bc 8b f3 04 bc 69 be 9c bb 17 1a f2 3c
       -0.030511782 -0.008114706 -0.004783441 0.029553456
000320 1b ca c6 bc b5 86 3c bd 16 0c 05 bc 3d 11 1b bd
       -0.024266293 -0.046026904 -0.008120557 -0.037858237
000330 9e 19 7b 3c f6 31 2a 3c 3e 82 74 bb b0 8f b0 bb
       0.015325932 0.010387888 -0.0037309076 -0.0053882226
000340 a1 22 b8 3c f0 1d 3b 3c ad 4f ba 3b 41 93 ba bb
       0.02247745 0.011420712 0.0056857676 -0.0056938236
000350 aa c2 ac bc 63 f4 ed 3b fd dd db bb 70 3c ba bc
       -0.021088917 0.007261799 -0.0067098127 -0.022733897
000360 c1 80 a0 bc c6 bb dd 3c 50 a2 bb 3c ce 4a bf 3c
       -0.019592645 0.027067076 0.022904545 0.0233511
000370 99 0b b6 3c 54 c1 cc bc 7a 62 1a 3c 8b 93 76 3b
       0.022222327 -0.02499453 0.009422893 0.0037624564
000380 7a a4 13 3d 6e 5b 01 bb 97 94 d6 3b 51 1a 61 3d
       0.03604553 -0.0019738334 0.006548475 0.054956738
000390 c6 56 5d bb c5 47 b4 3c 63 ff 91 3c dc 94 15 3d
       -0.0033773645 0.022006879 0.017821973 0.036518916
0003a0 39 ac 92 ba cd 76 2c bd 64 41 b8 bb 54 00 3c 3d
       -0.0011190242 -0.042105485 -0.0056230295 0.04589875
0003b0 35 85 e7 bc 8d 0c 1b 3c a2 4e f6 bc c1 02 a9 bb
       -0.02826176 0.009463442 -0.030066792 -0.005157799
0003c0 ba d4 84 3d a5 85 8f bc ed 10 f3 ba 5d 97 2c 3c
       0.06485887 -0.017519781 -0.0018544473 0.010534135
0003d0 fb 37 0b bc 9b ce 24 3b 9e 61 fc bc b5 47 06 bb
       -0.0084972335 0.002514756 -0.030808266 -0.0020489518
0003e0 8c 82 7b 39 95 ad 11 3d ac d8 1b 3d 34 65 3b 3d
       0.00023985858 0.03556593 0.03804843 0.04575081
0003f0 18 21 32 3d 6d 94 ca 3c e5 18 c9 3c 7e 70 16 3c
       0.043488592 0.024728978 0.024548003 0.009182094

conv3.bias f4 [64]
000000 55 e7 09 3c bc 27 61 3d 0b 0b a9 bc 1a c8 fc 3c
       0.00841697 0.054969534 -0.020635149 0.030857135
000010 e7 a2 14 3d 37 2b 90 3b 5f c8 fe 3b 27 74 4d b9
       0.03628817 0.004399683 0.007775351 -0.00019593594
000020 a1 c3 1a 3d e0 e5 e7 bc 93 05 01 3d 4b ad 0a bd
       0.037784223 -0.028307855 0.031499457 -0.03385667
000030 0c 4d 01 3b a8 10 dc 3c 34 d1 45 3d 29 70 c7 3c
       0.0019729761 0.026863411 0.048295215 0.024345474
000040 fa 1e 16 3d 35 1d 96 bc f9 2a b0 bc d9 bc 00 bb
       0.036650635 -0.018324474 -0.021504866 -0.0019643812
000050 84 d0 80 3c 2f 9e f6 bc 69 3a 83 3d 03 dc b4 3c
       0.015724428 -0.030104725 0.06407625 0.022077566
000060 eb 0d 43 3d f6 e0 cd 3c 17 e5 e2 bc 56 f8 4c 3d
       0.047620695 0.025131684 -0.02769713 0.05004152
000070 1e 13 88 3a 72 9c 16 3d e4 da 05 bd ac c8 53 bd
       0.0010381674 0.03677029 -0.032679453 -0.051705047
000080 93 83 92 bb 79 a7 c3 3c 58 69 0e 3d 26 2b 21 3d
       -0.0044712513 0.023883568 0.034768432 0.03934779
000090 61 dd 5f 3c 64 f9 59 3c d2 f3 d2 3b 90 e3 e0 3c
       0.013663621 0.013304088 0.006437757 0.02745226
0000a0 b7 43 b6 3d e7 25 3c 39 8c f5 ad 3d 66 26 f4 3c
       0.08899634 0.00017943197 0.084941 0.029803466
0000b0 e8 f2 7d 3d f9 2f 12 bd bc 0e 10 3d d1 72 d1 3c
       0.06199923 -0.03569028 0.0351703 0.025567444
0000c0 be b8 b7 3c 6a 1e d1 3c ab f0 09 3d 00 33 59 3d
       0.02242696 0.025527198 0.033676784 0.053027153
0000d0 e1 6b c9 bc 0f 3d d4 3c 20 35 bc 3c 25 93 b1 3c
       -0.024587573 0.025908021 0.02297455 0.02167661
0000e0 11 d6 dc bc 25 4f d4 3b 8c 20 af 3d e2 1e 1b 3c
       -0.026957544 0.0064791613 0.0855113 0.009467812
0000f0 3d 12 c7 3c 95 bc 56 3b 64 f0 9b 3b bf a3 5f 3b
       0.024300689 0.0032766212 0.0047588814 0.00341247

fc1.weight f4 [256, 576]
000000 99 d2 91 bc a4 f4 00 3d 84 7b 12 bd be 9b ee bb
       -0.017800616 0.031483307 -0.035762325 -0.0072817495
000010 b4 42 18 bd 11 45 e6 3c 95 26 af bb 85 b3 69 bc
       -0.037172988 0.028109105 -0.0053451755 -0.014263992
000020 75 14 1c bc 83 94 b7 3c 8c d8 b1 bc 27 04 eb 3c
       -0.009526362 0.022409683 -0.021709703 0.028688503
000030 0d 61 27 3d e2 51 9a bc b4 b9 27 bd d4 8a 2b bd
       0.04086404 -0.018837873 -0.040948585 -0.041880444
000040 4b 01 cc bc fa f6 e0 3c 7a f1 ef bc 17 03 ae bb
       -0.02490296 0.027461518 -0.02928995 -0.005310427
000050 5e d2 59 bb 27 07 1a bd 97 2a 1c bd 62 31 0f 3c
       -0.003323696 -0.037604477 -0.038126554 0.008739801
000060 a3 fe 00 bd de a5 92 3c 53 ea 10 3c b1 7c 57 ba
       -0.03149284 0.017901357 0.00884493 -0.00082201796
000070 33 ef 25 bd 87 8c f0 3b cc 0c 1c bd 9c 95 ec bc
       -0.04051132 0.007340971 -0.03809814 -0.028879933
000080 18 68 0b bd b4 3b f7 3b 0a 34 e8 3c 50 26 08 bc
       -0.03403482 0.007544959 0.028345127 -0.008309916
000090 56 48 04 3d 5a 23 33 bd 35 a7 c5 bc a2 fe b9 bc
       0.032295547 -0.043734886 -0.024127582 -0.022704426
0000a0 84 da 6a bc a1 4b 0e bc 9f 6e ef bb 5d 02 ab bc
       -0.014334325 -0.0086850235 -0.0073068882 -0.02087515
0000b0 ba d3 03 3d cc 09 0f 3d 28 b3 fa bc da c3 32 bd
       0.03218434 0.034921452 -0.030603006 -0.04364381
0000c0 fb c2 07 3d 51 7c e8 3c c2 e4 d3 3c a6 05 ae 3c
       0.033144932 0.028379591 0.025865916 0.021242928
0000d0 40 70 86 3c d6 75 00 3d 27 2b 88 3c b7 4e 19 bd
       0.016410947 0.031362377 0.01662214 -0.037428584
0000e0 1e 0f 66 bc b6 86 c9 3c 74 77 92 bc d2 e9 6a 3c
       -0.01404169 0.024600368 -0.017879225 0.014337974
0000f0 3e 32 0f 3c 75 ea 24 3d ed fc 54 3c a3 43 5d bc
       0.008740006 0.04026266 0.012999755 -0.013504895
000100 bb f9 ec 3c fc bd 25 3d d9 21 0b bc 83 1c e9 3b
       0.028927675 0.040464386 -0.008491957 0.0071139946
000110 9d 95 b5 3c 2f b4 ba bc de 44 26 bc 67 91 1f bd
       0.022166068 -0.022790996 -0.010148255 -0.038957026
000120 94 32 19 bc 81 5b 95 3b 9e 83 eb bc 1b a7 9a bc
       -0.009350438 0.0045580273 -0.028749283 -0.01887851
000130 48 af f1 bc 34 e0 13 bd a1 6d 18 3d 2b cc e9 3c
       -0.029502526 -0.03610249 0.037213925 0.028539738
000140 58 8c 39 bd 73 5f ba 3c 3c 81 7b 3c 91 93 5c 3b
       -0.045299858 0.022750592 0.015350636 0.0033657292
000150 78 81 be 3b 7d d2 b5 3a 30 41 ef 3c 25 4f 58 bc
       0.0058137737 0.0013871934 0.029205889 -0.013202463
000160 f2 4f 1f bd 0b 38 8a 3b d7 0e a0 bc 55 04 ca bb
       -0.0388946 0.0042181066 -0.019538326 -0.006165067
000170 2b 10 02 3c c2 73 30 3d a1 6d 66 3c f1 96 28 3d
       0.007938425 0.043079145 0.0140642235 0.041159574
000180 26 e5 8f bb c5 5c e1 bc 58 b7 cd 3c 27 42 cf 3c
       -0.0043913303 -0.027510056 0.02511184 0.025300099
000190 a9 3b 63 3c 7b 28 6e 3c 6e cf 95 bb fb 71 72 bb
       0.013869205 0.0145360185 -0.0045718467 -0.0036994207
0001a0 fa 34 9c 3c 99 ee 88 bc 12 e8 2f bd d5 bf 79 3c
       0.01906823 -0.016715335 -0.04294593 0.01524349
0001b0 ed 02 46 3b d9 1c 22 bd 87 2c bb 3c e9 0c fa 3b
       0.0030214146 -0.039578293 0.02284838 0.0076309335
0001c0 06 d7 07 3d c8 e1 9e bc f1 cc 55 bc 9e 9c 0e 3c
       0.033164047 -0.01939477 -0.01304935 0.008704333
0001d0 d8 6e f9 3b 99 d9 09 bd f6 7c ab 3b ea 75 1e 3c
       0.0076120906 -0.033654783 0.0052334024 0.009671668
0001e0 28 87 89 3b 1b b7 a9 3c 50 de 10 3c d7 d2 e4 bc
       0.00419702 0.020717194 0.008842066 -0.027932568
0001f0 b3 48 be 3b 1e d9 83 bc 43 8e 9e 3c c5 11 90 bc
       0.0058070063 -0.01609474 0.019354945 -0.017586598
000200 2a 6f 19 bd 10 03 e5 bc b5 96 03 bd 3c 25 e0 bb
       -0.03745953 -0.027955562 -0.032126147 -0.006840376
000210 34 b2 eb 3c dd 62 13 bd 13 fd 40 bc 69 0a 21 3d
       0.028771497 -0.035982955 -0.011779088 0.03931657
000220 0c 08 94 bb 3e 5e dd bc e0 0f ed bc 99 55 2f bc
       -0.004517561 -0.027022477 -0.028938234 -0.01070156
000230 2f 3f 0a bd 77 7c 5f bc 8c ae 4f bc 9d af 29 bd
       -0.033751663 -0.013640515 -0.012675893 -0.041427244
000240 eb 7d 1d bd 90 05 1d 3d 71 0e ef 3b 5b c2 fc bc
       -0.038450163 0.038335383 0.0072954227 -0.030854395
000250 77 d4 03 bd e8 71 c9 3b 55 ae 26 3c db 18 c6 3c
       -0.032185044 0.006147612 0.0101734 0.024181774
000260 1d 50 a6 bc 65 3c 26 3d ca ed 19 3d 0e 43 13 bb
       -0.020301873 0.04058494 0.03758029 -0.0022470388
000270 80 be 6a 3c e1 41 6a 3a fc 52 06 3d ad 62 d2 bb
       0.014327645 0.00089362083 0.032793984 -0.0064204545
000280 48 d3 91 bc fd 2a 0e 3d c0 12 f5 bb ae b8 2f bc
       -0.017800942 0.034708966 -0.007479042 -0.010725183
000290 8a f5 22 3d 4e 33 ee 3c d4 d7 08 bd 3c 4f d3 bb
       0.039784946 0.029077198 -0.033408955 -0.0064486545
0002a0 71 94 aa 3c 6f a8 16 3c 8e ef a9 3c 4c 5f fb bc
       0.020822736 0.009195431 0.020744111 -0.03068509
0002b0 70 b9 27 3b 2b 20 b7 bc a1 a2 b5 3c 45 50 63 bc
       0.0025592707 -0.022354206 0.022172274 -0.013874118
0002c0 e1 c1 d2 3c c2 6c c4 3c 66 74 49 3d f0 81 d2 bc
       0.025727214 0.023977641 0.04918327 -0.025696725
0002d0 30 3e 13 bd fa 0c 9e 3b eb 0f 21 3c ac 1a 32 bd
       -0.03594798 0.0048233243 0.009830455 -0.043482468
0002e0 20 1a 08 3d 40 68 24 bd 8f 98 59 3c 78 ea d3 bc
       0.03322804 -0.040138483 0.013281002 -0.02586864
0002f0 d6 16 74 3b 3a 84 54 bb 63 92 17 3c 75 bd 10 bd
       0.0037245057 -0.0032427446 0.00925121 -0.03533693
000300 4c 90 9c 3c 46 1a 0e bd 89 9f 14 3d b5 41 ef 3c
       0.019111775 -0.034693025 0.036284957 0.029206136
000310 c8 39 03 3c 86 31 ef bc 54 09 89 3c 7a 97 0f 3c
       0.008009382 -0.02919842 0.01672808 0.008764142
000320 79 03 80 3c e8 25 c5 bc 8b da 4f 3b 03 15 c0 bc
       0.015626656 -0.024065927 0.0031715955 -0.02344752
000330 4d e2 0a bd e7 c6 3a bd 79 41 2c 3c 1a fc 09 ba
       -0.033907223 -0.045599844 0.010513657 -0.00052637013
000340 60 63 96 bc 5f 92 1e 3d 6f bb 5d bc 7a 8c 24 bc
       -0.018357933 0.03871381 -0.013533457 -0.010043258
000350 f6 4a 34 bd 49 c6 5f 3c f4 6d 8a 3c fc 29 ab 3c
       -0.0440168 0.013658115 0.016898133 0.020894043
000360 85 35 89 3c ab f7 cf 3c 3c da 38 3c 8f 77 95 bc
       0.016749153 0.025386652 0.0112825 -0.018245487
000370 91 62 15 bd 48 38 71 bc 0a ab 15 ba 50 1b cc bc
       -0.036470953 -0.014722891 -0.0005709386 -0.024915367
000380 7e 29 63 39 5c 2c 1f bd c4 66 09 3c 8d 83 72 bc
       0.00021663864 -0.038860664 0.008386318 -0.014801872
000390 65 19 24 bd 49 a6 6e 3c 67 c0 0a 3d 48 37 eb 3b
       -0.04006328 0.014566013 0.033874895 0.007178221
0003a0 70 96 d1 bb 42 0d 26 3d fe 94 c3 3c 24 35 0d 3d
       -0.0063961074 0.040539987 0.023874756 0.034474507
0003b0 23 e8 d4 3c 2e d2 26 bd e0 99 cf 3c f1 6d 8b bb
       0.025989598 -0.040727787 0.025341928 -0.0042550494
0003c0 84 ba 10 3d da 5e 01 bd 67 25 04 bc 22 f5 71 bb
       0.035334125 -0.031584598 -0.008065558 -0.0036919792
0003d0 d0 6b 59 bc 58 ba 02 3d 25 f6 a9 bc 17 f0 89 bb
       -0.013270333 0.031915992 -0.020747254 -0.004209529
0003e0 6c 28 d5 3b a0 6e d0 3b 94 ca 0e 3c 42 3e 83 3c
       0.006505063 0.006360844 0.008715291 0.016020898
0003f0 73 75 eb bc 52 25 25 3c 93 a5 cc 3c ba ea 01 bb
       -0.028742528 0.010079699 0.024981296 -0.0019823746

fc1.bias f4 [256]
000000 81 19 e5 3b a9 d1 ba 3d 78 ba 57 3d db d8 27 bc
       0.0069915657 0.09122021 0.052668065 -0.0102445735
000010 48 4a 28 bd 47 78 07 3d 50 06 c8 bb 0e 7c 23 3d
       -0.041086465 0.03307369 -0.006104268 0.03991323
000020 13 77 ee 3c 04 d5 25 bd 00 ab 06 3d 23 c4 83 bd
       0.029109513 -0.04048635 0.032877922 -0.064338945
000030 c3 49 39 3d 67 91 ea 3c 87 c1 ea bb 9a 29 98 3d
       0.04523636 0.028633786 -0.0071641835 0.0742981
000040 9d 43 58 ba 59 46 0c 3d b7 69 15 bd 77 6e b5 bc
       -0.0008249821 0.034246776 -0.03647777 -0.0221474
000050 12 4a 8a 3c 29 43 d2 ba 75 76 7d 3d 8c 8f 9a bc
       0.016881023 -0.0016041744 0.061880548 -0.018867277
000060 7e 75 6f bc 26 c9 55 bd 6f ed 9e bc d8 00 e3 bb
       -0.014615415 -0.052193783 -0.019400327 -0.006927591
000070 a4 85 1a bd f0 4a e6 3c 64 e8 db 3c d0 de 23 3d
       -0.037725106 0.028111905 0.02684421 0.040007412
000080 6b 75 c2 bb bb d4 ac 3d 2f 49 20 3d 76 d2 ca 3b
       -0.0059344075 0.084390126 0.039132293 0.0061896397
000090 b9 5f 86 bd c5 74 5d bc 22 61 d2 bb 0a fa 60 bd
       -0.065612264 -0.01351661 -0.0064202705 -0.054925956
0000a0 0a ce 06 3d f3 8d 9c 3d 1e af fc bc 3d 28 2c 3c
       0.032911338 0.07644262 -0.030845221 0.01050764
0000b0 36 58 c2 3c 8e 70 13 3d c3 c2 d2 bc c9 07 09 bd
       0.023723703 0.035996012 -0.025727635 -0.03345469
0000c0 39 c5 f3 bc c1 f5 c6 3c 7c 00 e8 3c ab 74 94 3d
       -0.029757129 0.024287106 0.028320543 0.07248815
0000d0 3a 95 24 3c d1 ed fe 3c 3e e9 07 bd 9c bc e0 3b
       0.010045344 0.03111926 -0.03318142 0.0068584215
0000e0 ae 7a 73 bc 1c 26 b3 bc 5c e1 fe 3b 8c b4 83 3d
       -0.014860792 -0.021868758 0.00777833 0.06430921
0000f0 fd 69 10 ba bd 94 4d bc 10 3c 04 3c f3 ac 99 3c
       -0.00055089575 -0.012547669 0.008070961 0.018759226
000100 bf f9 03 3d 55 db 26 3d cf 76 6d 3d c6 80 b3 3d
       0.0322206 0.040736515 0.057974633 0.08764796
000110 12 0d 5f 3c 52 29 05 bb 32 d2 1f bd 8b b6 40 3d
       0.013613956 -0.0020318818 -0.039018817 0.047049087
000120 e8 43 17 bd c4 34 4f 3d 45 f6 10 bc 23 ea 21 bd
       -0.036929995 0.05058743 -0.008847778 -0.03952993
000130 a8 95 c7 3c 31 e9 03 bc 7f 2e a7 3d 2a 92 b7 bc
       0.024363354 -0.008051203 0.08163165 -0.022408564
000140 66 57 76 bc b2 36 27 bd 7a 0f 89 bc 5d 80 0e b9
       -0.015035486 -0.040823646 -0.016731013 -0.00013589994
000150 15 ce 69 3d 97 12 6a bc 01 e3 1b bc da 3d 3f 3b
       0.0570813 -0.014286659 -0.009514571 0.0029181154
000160 d2 fe 28 bd 52 cd 24 bc d8 9a 59 bc d9 af 27 3d
       -0.04125864 -0.010058718 -0.0132815465 0.040939186
000170 61 fa 20 3b 0b 09 f1 bc ab f6 6d bd 6f c5 2a bd
       0.00245633 -0.029423257 -0.05809657 -0.041692194
000180 9d ff 32 3d b3 75 bc bc f8 8d 90 3c f7 19 3d 3d
       0.043700803 -0.023005342 0.017645821 0.04616734
000190 6c 75 29 bd 61 27 98 bc 02 5e e1 3c 3e ad 1a 3d
       -0.041371748 -0.018573465 0.027510647 0.037762873
0001a0 f3 16 59 3d 94 c4 eb 3a 72 40 2e 3a c4 35 08 bd
       0.0530004 0.0017987662 0.00066471763 -0.0332544
0001b0 f6 04 94 3b a8 77 ae 3c ab fa 92 bc a1 3a 24 bd
       0.004517193 0.02129729 -0.017941793 -0.040094975
0001c0 03 dd 07 bd 70 be 80 3d 68 95 31 bd c5 13 21 3c
       -0.033169758 0.06286323 -0.043355376 0.009831374
0001d0 e1 d2 b4 ba 34 3d 2c bc 0b c3 5e 3d 5d a8 c2 3c
       -0.0013795757 -0.010512639 0.054385226 0.023761922
0001e0 1f b7 4f 3d 57 7e 19 bc ee 8a 14 3d 87 39 ac 3c
       0.050711747 -0.009368501 0.036265306 0.021023525
0001f0 de f4 14 3d d1 d8 0f 3d 12 04 0d bd e2 0c 97 38
       0.036366336 0.03511888 -0.03442771 7.202641e-05
000200 9d 28 e9 bb 12 1c ab 3d 7f 7e 3d bb f2 75 0f 3d
       -0.007115437 0.08354963 -0.002891451 0.03502459
000210 6d 29 a4 3c 0a 86 84 3d 01 d6 c1 3c dd 18 cd 3c
       0.020039285 0.064708784 0.023661615 0.02503627
000220 bb f9 b2 3c d9 e5 17 3b 8f e4 2b bd 40 79 aa 3a
       0.021847596 0.0023177771 -0.041966017 0.0013006106
000230 19 cd 05 3d e3 98 26 bb fa 72 44 3d 4d c8 ca 3c
       0.0326663 -0.0025420717 0.047961213 0.024753714
000240 bf f2 ef bc 02 5c 37 3c e6 85 bf bb 09 f7 e0 bb
       -0.029290555 0.01119137 -0.0058448194 -0.0068653864
000250 e7 30 c9 3d 72 62 51 3d 13 29 7e bc f6 da 82 3b
       0.098237805 0.051119275 -0.015512723 0.0039933873
000260 ec f6 72 3d 20 d5 44 3d 1e db bf 3c 4c f0 a0 3d
       0.059317514 0.048054814 0.023419913 0.07858333
000270 f1 24 6b 3d f8 f1 fa 3c 3f d4 92 3c b6 83 5b 3d
       0.057408277 0.030632958 0.017923472 0.053592406
000280 4a 4a fd 3c 90 ee b5 3c 0a e6 46 3d 04 3d cb bc
       0.030919213 0.022208482 0.048559226 -0.024809368
000290 65 c0 c2 bc d5 5e 22 3c ea f7 8f 3d 2d 64 4d bc
       -0.023773381 0.009910305 0.07029708 -0.012536091
0002a0 7f 35 20 bd 65 f1 91 3d b7 ac ca ba b2 1d 16 3d
       -0.039113518 0.071261205 -0.001546285 0.036649413
0002b0 9e ca 37 bc a4 7a 09 bc fd c8 e1 3c e7 ee 0c 3d
       -0.011217741 -0.008391056 0.027561659 0.034407523
0002c0 0e a1 1b bc 8f 97 b0 3d a9 8b 1c 3c 91 b5 1d 3d
       -0.009498848 0.086226575 0.009554782 0.038503233
0002d0 60 88 94 3c 87 6a 54 bd 59 3c 2e bd fb f6 c6 3c
       0.018131435 -0.051859405 -0.04253802 0.024287691
0002e0 83 0a 05 bd d1 28 10 bd 00 bb f2 3b 22 86 74 3d
       -0.032480728 -0.035195176 0.007407546 0.05969823
0002f0 2b 17 11 3d 99 c6 ce bc 87 87 2f 3b f8 7a d7 3c
       0.035422485 -0.025241183 0.0026783661 0.026303753
000300 b8 76 7e 3d 2b 42 20 bd 0a e1 35 bc c1 f0 c9 39
       0.062124938 -0.039125603 -0.011101017 0.00038517083
000310 16 ac ac 39 da 69 88 3c 53 6f fd 3c d1 12 b2 bc
       0.0003293461 0.016652036 0.030936873 -0.021737488
000320 5b c2 d7 3c 43 71 be 3d 34 3b 24 3d e2 84 42 bc
       0.026337793 0.09298947 0.040095523 -0.011872502
000330 6a a7 f7 3c 74 61 41 bd 60 1b 08 3d bf be 8d 3d
       0.030231196 -0.04721208 0.03322923 0.069211476
000340 87 74 a2 3c c7 7c 4f 3d 09 1f 0d bb 13 85 91 3c
       0.019830955 0.050656106 -0.002153339 0.01776365
000350 77 1a ea bc 2f 5d 4a 3c 36 40 f9 3c bd d8 f6 39
       -0.028577073 0.012351318 0.030426126 0.0004708226
000360 aa 99 a4 ba 71 a4 31 bc e4 0b 59 bc 81 ad 4c 3c
       -0.0012558002 -0.010842429 -0.013247464 0.012492538
000370 bf d3 16 3c da e9 dc bb 83 d7 34 3d ba 1f c5 3c
       0.009205758 -0.0067417445 0.04415084 0.02406298
000380 10 40 32 3d 72 a7 b5 bc bd 3d 59 3d 60 72 2d 3c
       0.043518126 -0.02217457 0.053037394 0.010586351
000390 03 d4 dd bc 41 61 96 bc 2b 7c e4 bc 15 00 8d bc
       -0.027078634 -0.018356921 -0.02789124 -0.017211953
0003a0 6f 7c ef bc 7a 14 53 3c 15 43 b1 3c 5f ec d4 3c
       -0.02923414 0.0128833 0.021638433 0.025991617
0003b0 ff 7c a2 bb 4f 04 e1 3c 6b 68 e6 bc 71 f4 b1 3d
       -0.0049587484 0.027467875 -0.028125962 0.086892016
0003c0 48 f4 04 bd cf 8b 9f 3b ad 81 f6 3c 34 da 11 bc
       -0.032459527 0.0048689614 0.030091131 -0.008902121
0003d0 88 af 00 3d a5 b9 0f 3d 33 1f a6 bb fa ef 85 bd
       0.0314174 0.035089154 -0.005069637 -0.065399125
0003e0 bf f0 ac bc 2f 1e b6 3d 33 9d 33 bd 3c 8f c6 bc
       -0.02111089 0.08892476 -0.04385109 -0.024238221
0003f0 2c a7 27 3c ce 08 c9 3c ff 33 8c 3c 7e c3 bf 3c
       0.010232728 0.024540331 0.017114637 0.023408648

fc2.weight f4 [10, 256]
000000 ab 09 00 3d 84 12 a7 3e c9 76 55 3e ef df 15 bd
       0.03125922 0.32631314 0.20846094 -0.036590513
000010 37 54 59 3d 93 af 03 3e f9 1a cf bd 67 c3 55 bc
       0.05305883 0.12859945 -0.101125665 -0.013047076
000020 51 10 96 3d f2 87 b4 bc 24 37 e8 bd 04 3a 55 3b
       0.07327331 -0.02203748 -0.11338642 0.00325358
000030 90 68 80 3d eb 87 67 3d 6d ce e2 3d 94 82 c4 3d
       0.06269944 0.056526106 0.11074529 0.09595218
000040 8a be b0 bc ec ee 1f 3e bd 34 a2 bc bc 8d 2a bd
       -0.021575231 0.15618485 -0.019800538 -0.041639075
000050 31 e6 03 3e 37 b2 1a bc 24 48 1b 3d 77 f4 49 bd
       0.1288078 -0.009441904 0.037910596 -0.049305405
000060 d7 11 b1 bc 3a b2 0f bd 57 77 30 3d 67 c2 15 3d
       -0.021614952 -0.03508208 0.04308256 0.03656235
000070 c5 6e 16 bd e2 70 99 3d c4 ef 71 bd 4f 9d 38 3d
       -0.03672673 0.07492234 -0.05906655 0.045071896
000080 94 57 61 bd 18 7b 0a bd 4f 51 4b be b3 a1 e1 bc
       -0.05501516 -0.033808798 -0.19855236 -0.027542925
000090 a6 e0 e9 bd 5a f3 22 bd 77 8c 9e 3e ff d5 77 3d
       -0.114198014 -0.03978286 0.3096654 0.060506817
0000a0 6e 4b 82 bc cf e1 24 3d 2f b2 35 be ae 5d d7 bd
       -0.015905108 0.04025441 -0.17743753 -0.10515915
0000b0 56 ff 0e 3e 6f c9 c0 3d 33 44 0c bc 37 d9 06 bd
       0.1396459 0.094134204 -0.008561182 -0.032921996
0000c0 31 ce 87 bc e5 9d b8 bd d0 d9 85 3d a5 69 92 3e
       -0.016577812 -0.09014491 0.06535685 0.28596225
0000d0 fd 47 85 bc 2b 28 39 bd 83 3a a1 bd 5f 83 1a be
       -0.016269678 -0.045204323 -0.07872488 -0.15089177
0000e0 e9 b1 cf bc 83 5f 12 3e 4a 40 14 3c 7c 2a 13 3e
       -0.025353389 0.14294247 0.009048531 0.14371675
0000f0 a7 65 2a bd ad 6b 42 3d 76 1d ec 3d 14 c4 cf 3d
       -0.04160085 0.04746597 0.11529057 0.10144821
000100 44 2f a3 3c 4f dd 62 bd d6 45 a2 bd e8 3a 71 3d
       0.019919999 -0.055386838 -0.079234764 0.058894068
000110 f0 b9 dc bc ed a7 62 bd bf 95 6c 3d 4e e4 8f 3d
       -0.02694413 -0.055335928 0.057759997 0.070259675
000120 57 39 8b bc 7d 5d 73 3c df 5a ab 3d 7c 6f 7b ba
       -0.016995115 0.014853832 0.08366942 -0.00095915026
000130 64 18 26 bc 3f e7 e0 bd 60 a6 87 bc 74 7a 98 bd
       -0.010137651 -0.10981607 -0.016558826 -0.07445231
000140 64 fd 94 3d 83 55 96 3d 32 a5 85 bd b9 0b 0b bb
       0.07274893 0.07340529 -0.06525649 -0.0021216704
000150 a8 64 85 3e 81 5a b1 bd f8 40 04 bd ab 18 00 3e
       0.26053357 -0.086598404 -0.03228852 0.1250941
000160 dc 12 cf bd 19 c5 13 bc a0 74 0b 3d af 4c 86 3d
       -0.10111019 -0.00901916 0.03404677 0.06557595
000170 03 5a b6 3c 92 e8 37 3d 5c b1 1b be 4d ca ae bc
       0.022259718 0.04489953 -0.15204376 -0.021336699
000180 c1 fd d3 3d f9 be 0a bd f9 79 e9 bb 2a 7e 28 3d
       0.10351134 -0.033873532 -0.007125136 0.041135944
000190 de 30 bf 3c 6b 2f 3f bc 19 b8 28 be 0c b4 0b 3e
       0.023338731 -0.01166902 -0.16476478 0.13642901
0001a0 3e cb 1f bd 12 76 32 bd a1 78 28 3d c3 58 da 3d
       -0.039012186 -0.043569632 0.041130666 0.10661461
0001b0 ab 82 91 bc 77 9f 51 3b 0a 20 01 3d fa 94 6e bb
       -0.017762503 0.0031985918 0.031524695 -0.0036404715
0001c0 57 e6 a8 ba e5 2e 10 3e 7d 5b dc 3d 05 47 c0 bd
       -0.001288603 0.14080389 0.107596375 -0.09388546
0001d0 f6 a8 03 3e 07 bc 61 bc 0b 93 c7 3a 3d af c2 3d
       0.12857422 -0.013777739 0.0015226317 0.0950608
0001e0 d1 4f 07 3c d1 70 b1 3b f3 eb 32 3d d5 98 90 3d
       0.008258776 0.00541506 0.04368205 0.070604004
0001f0 ed 36 d5 bd 41 a1 a0 3d 53 7b 55 3d 2c 23 ac 3d
       -0.10410867 0.07843257 0.052119564 0.08405146
000200 09 a8 a2 bd 9e 41 3d 3e 0f f5 5f 3e a9 14 04 3d
       -0.079422064 0.18482062 0.21870826 0.032246266
000210 d8 10 89 3b 08 0e 47 3e 35 2e bc bd 7c 70 b3 bd
       0.004182916 0.19438946 -0.09188501 -0.08761689
000220 43 66 80 bd ec 62 94 bc 3b 8a bd bc ec 86 e6 bb
       -0.06269505 -0.018113576 -0.023137202 -0.007035127
000230 39 6b 58 3d 67 a9 5f bd 1f 2a f0 3d a3 5f 9c 3d
       0.05283663 -0.054604914 0.11726784 0.07635429
000240 b9 11 7e 3c 9a 9d ed bc 51 5d 0b be b4 d7 5d 3d
       0.015507155 -0.029005814 -0.13609816 0.05416079
000250 63 53 ad 3d 2e b0 bd bd 62 4d 15 be 2c 12 05 bc
       0.084631704 -0.09262119 -0.145803 -0.008122008
000260 35 8c c4 3d ed ea a8 3d 8b 2d bd bd 1e 53 1b bc
       0.09597055 0.082479335 -0.09237202 -0.009480266
000270 2d f1 17 3e 1c dc 18 3c 9d f3 60 bd 19 b5 c2 3d
       0.14838095 0.009329822 -0.054919828 0.09507198
000280 c9 8a e6 3b 68 10 de 3c 78 a2 73 bd d1 6c e8 bc
       0.0070355874 0.027107432 -0.059481114 -0.0283722
000290 da 9c 48 3b 64 c2 8a 3d 0b e9 e4 3b e4 da 2d 3b
       0.003061107 0.06775358 0.0069857887 0.0026528174
0002a0 b2 0c 9c bc e2 66 6d 3c a5 ea 70 3d 42 a5 da 3d
       -0.019049022 0.014489861 0.058817524 0.10676052
0002b0 da 06 38 3a ce ea 38 3d f0 de e7 3c 18 5e 99 3d
       0.0007020064 0.045145802 0.028304547 0.0748865
0002c0 00 60 4d bd c2 8d 14 be c8 a2 51 3c ef f2 9c 3c
       -0.05014038 -0.14507201 0.012795158 0.019158809
0002d0 51 23 19 3e c7 b1 e6 3d 01 01 a6 bc 74 a7 d3 bb
       0.14954878 0.11264377 -0.02026415 -0.006459171
0002e0 a7 61 f5 3c 81 c9 62 bd a0 d7 85 bc c3 80 f4 bd
       0.02995379 -0.05536795 -0.01633817 -0.11938622
0002f0 39 cf 38 3d 1d dd 57 bd 86 e2 15 be 0f b3 53 bc
       0.045119498 -0.052701104 -0.14637193 -0.012921109
000300 0d 8f 3f 3d be b7 36 bd c4 9b 2a bd 4e c8 ae bd
       0.046767283 -0.044608824 -0.041652456 -0.08534299
000310 62 c3 27 3c 53 da a3 bd e2 83 47 3d fc ee a9 3d
       0.010239454 -0.080006264 0.048709758 0.08297536
000320 2d 13 0b bd aa be 1c 3e bd b5 30 3e ba 01 d5 3d
       -0.033953834 0.15307108 0.17256828 0.1040072
000330 3d 50 16 be c6 2a 2e bd 93 f5 0e 3e fe 6a 2e 3e
       -0.14679046 -0.04252126 0.13960867 0.17033002
000340 65 cf 5a bc 99 66 90 3a 40 20 3a 3d 0c b1 4f bd
       -0.013355111 0.0011016905 0.045440912 -0.050705954
000350 c0 8a bf 3d 96 84 0d bd 4a 1a 04 3e 60 4e 84 3d
       0.09352636 -0.034550272 0.12900653 0.06460261
000360 1b 3a 28 3d e3 b8 32 bd 61 e5 5c bd 39 7b b7 bd
       0.04107104 -0.043633353 -0.05392969 -0.0895905
000370 40 cf 1f bd 50 ee 58 3d a9 51 51 bc 77 5d 48 3e
       -0.03901601 0.052961648 -0.012775817 0.19566904
000380 45 75 32 be 3e 2c 99 bd e9 71 48 3c fc 3c c0 3d
       -0.17427547 -0.07479142 0.01223419 0.09386632
000390 dd a4 b1 3d d2 b0 b1 bc 19 8a a6 3c 38 af 04 3e
       0.08674023 -0.02169076 0.020329522 0.12957466
0003a0 09 ad ed ba 49 56 9a bd 95 fa 00 be 72 d5 d2 3c
       -0.0018133234 -0.07535989 -0.1259559 0.025736544
0003b0 f8 26 d0 bc 25 1e b9 bd b9 6a 00 3e 0e 45 e0 3c
       -0.025409207 -0.09038953 0.12540711 0.027376678
0003c0 c6 39 f2 bb c8 d5 1b 3c 00 5a a8 bd d9 56 60 3d
       -0.007392141 0.009511419 -0.08220291 0.054770324
0003d0 e0 07 86 bd c1 45 b8 bc b1 41 d1 bd 3f fb 20 bc
       -0.06544471 -0.022494199 -0.10217608 -0.009825527
0003e0 c1 19 06 bd 6f 40 1a 3e 25 74 fb bc e2 e6 75 bc
       -0.032739405 0.15063642 -0.03069503 -0.01500866
0003f0 78 e5 d9 bc d6 af 8c bc ee 57 4e bd 97 13 df bd
       -0.026598677 -0.017173689 -0.050376825 -0.10892408

fc2.bias f4 [10]
000000 dc 68 07 3d 3b ea aa bd 20 52 9f 3e 7a 9b 96 3c
       0.033058986 -0.08345457 0.31117344 0.018384684
000010 f4 f2 02 bf 4d 3c 52 3e 8e 86 53 3e 5b 1e 18 3c
       -0.5115197 0.20530815 0.20656797 0.009284581
000020 e1 bc 87 3b 1d e3 9a be
       0.004142389 -0.302514
